…
I0109 02:36:16.284776  4581 net.cpp:322] The NetState phase (0) differed from the phase (1) specified by a rule in layer indus
I0109 02:36:16.284807  4581 net.cpp:322] The NetState phase (0) differed from the phase (1) specified by a rule in layer accuracy
I0109 02:36:16.284910  4581 net.cpp:49] Initializing net from parameters:
name: "indus"
state {
  phase: TRAIN
}
layer {
  name: "indus"
  type: "ImageData"
  top: "data"
  top: "label"
  include {
    phase: TRAIN
  }
  transform_param {
    scale: 0.00390625
    crop_size: 32
  }
  image_data_param {
    source: "Train.txt"
    batch_size: 100
    is_color: false
  }
}
layer {
  name: "conv1"
  type: "Convolution"
  bottom: "data"
  top: "conv1"
  param {
    lr_mult: 1
  }
  param {
    lr_mult: 2
  }
  convolution_param {
    num_output: 20
    kernel_size: 5
    stride: 1
    weight_filler {
      type: "xavier"
    }
    bias_filler {
      type: "constant"
    }
  }
}
layer {
  name: "conv2"
  type: "Convolution"
  bottom: "conv1"
  top: "conv2"
  param {
    lr_mult: 1
  }
  param {
    lr_mult: 2
  }
  convolution_param {
    num_output: 50
    kernel_size: 5
    stride: 1
    weight_filler {
      type: "xavier"
    }
    bias_filler {
      type: "constant"
    }
  }
}
layer {
  name: "dropout"
  type: "Dropout"
  bottom: "conv2"
  top: "dropout"
}
layer {
  name: "ip1"
  type: "InnerProduct"
  bottom: "dropout"
  top: "ip1"
  param {
    lr_mult: 1
  }
  param {
    lr_mult: 2
  }
  inner_product_param {
    num_output: 500
    weight_filler {
      type: "xavier"
    }
    bias_filler {
      type: "constant"
    }
  }
}
layer {
  name: "relu1"
  type: "ReLU"
  bottom: "ip1"
  top: "ip1"
}
layer {
  name: "ip2"
  type: "InnerProduct"
  bottom: "ip1"
  top: "ip2"
  param {
    lr_mult: 1
  }
  param {
    lr_mult: 2
  }
  inner_product_param {
    num_output: 2
    weight_filler {
      type: "xavier"
    }
    bias_filler {
      type: "constant"
    }
  }
}
layer {
  name: "loss"
  type: "SoftmaxWithLoss"
  bottom: "ip2"
  bottom: "label"
  top: "loss"
}
I0109 02:36:16.285547  4581 layer_factory.hpp:77] Creating layer indus
I0109 02:36:16.285609  4581 net.cpp:106] Creating Layer indus
I0109 02:36:16.285635  4581 net.cpp:411] indus -> data
I0109 02:36:16.285676  4581 net.cpp:411] indus -> label
I0109 02:36:16.286144  4581 image_data_layer.cpp:38] Opening file Train.txt
I0109 02:36:16.286319  4581 image_data_layer.cpp:53] A total of 246 images.
I0109 02:36:16.297370  4581 image_data_layer.cpp:80] output data size: 100,1,32,32
I0109 02:36:16.300786  4581 net.cpp:150] Setting up indus
I0109 02:36:16.300842  4581 net.cpp:157] Top shape: 100 1 32 32 (102400)
I0109 02:36:16.300863  4581 net.cpp:157] Top shape: 100 (100)
I0109 02:36:16.300879  4581 net.cpp:165] Memory required for data: 410000
I0109 02:36:16.300902  4581 layer_factory.hpp:77] Creating layer conv1
I0109 02:36:16.300938  4581 net.cpp:106] Creating Layer conv1
I0109 02:36:16.300961  4581 net.cpp:454] conv1 <- data
I0109 02:36:16.300987  4581 net.cpp:411] conv1 -> conv1
I0109 02:36:16.301829  4581 net.cpp:150] Setting up conv1
I0109 02:36:16.301861  4581 net.cpp:157] Top shape: 100 20 28 28 (1568000)
I0109 02:36:16.301877  4581 net.cpp:165] Memory required for data: 6682000
I0109 02:36:16.301909  4581 layer_factory.hpp:77] Creating layer conv2
I0109 02:36:16.301966  4581 net.cpp:106] Creating Layer conv2
I0109 02:36:16.301985  4581 net.cpp:454] conv2 <- conv1
I0109 02:36:16.302009  4581 net.cpp:411] conv2 -> conv2
I0109 02:36:16.303033  4581 net.cpp:150] Setting up conv2
I0109 02:36:16.303082  4581 net.cpp:157] Top shape: 100 50 24 24 (2880000)
I0109 02:36:16.303099  4581 net.cpp:165] Memory required for data: 18202000
I0109 02:36:16.303122  4581 layer_factory.hpp:77] Creating layer dropout
I0109 02:36:16.303145  4581 net.cpp:106] Creating Layer dropout
I0109 02:36:16.303161  4581 net.cpp:454] dropout <- conv2
I0109 02:36:16.303179  4581 net.cpp:411] dropout -> dropout
I0109 02:36:16.303246  4581 net.cpp:150] Setting up dropout
I0109 02:36:16.303269  4581 net.cpp:157] Top shape: 100 50 24 24 (2880000)
I0109 02:36:16.303285  4581 net.cpp:165] Memory required for data: 29722000
I0109 02:36:16.303300  4581 layer_factory.hpp:77] Creating layer ip1
I0109 02:36:16.303328  4581 net.cpp:106] Creating Layer ip1
I0109 02:36:16.303354  4581 net.cpp:454] ip1 <- dropout
I0109 02:36:16.303378  4581 net.cpp:411] ip1 -> ip1
I0109 02:36:16.454174  4581 net.cpp:150] Setting up ip1
I0109 02:36:16.454236  4581 net.cpp:157] Top shape: 100 500 (50000)
I0109 02:36:16.454254  4581 net.cpp:165] Memory required for data: 29922000
I0109 02:36:16.454283  4581 layer_factory.hpp:77] Creating layer relu1
I0109 02:36:16.454313  4581 net.cpp:106] Creating Layer relu1
I0109 02:36:16.454331  4581 net.cpp:454] relu1 <- ip1
I0109 02:36:16.454352  4581 net.cpp:397] relu1 -> ip1 (in-place)
I0109 02:36:16.454376  4581 net.cpp:150] Setting up relu1
I0109 02:36:16.454394  4581 net.cpp:157] Top shape: 100 500 (50000)
I0109 02:36:16.454409  4581 net.cpp:165] Memory required for data: 30122000
I0109 02:36:16.454423  4581 layer_factory.hpp:77] Creating layer ip2
I0109 02:36:16.454444  4581 net.cpp:106] Creating Layer ip2
I0109 02:36:16.454459  4581 net.cpp:454] ip2 <- ip1
I0109 02:36:16.454480  4581 net.cpp:411] ip2 -> ip2
I0109 02:36:16.454612  4581 net.cpp:150] Setting up ip2
I0109 02:36:16.454638  4581 net.cpp:157] Top shape: 100 2 (200)
I0109 02:36:16.454653  4581 net.cpp:165] Memory required for data: 30122800
I0109 02:36:16.454671  4581 layer_factory.hpp:77] Creating layer loss
I0109 02:36:16.454696  4581 net.cpp:106] Creating Layer loss
I0109 02:36:16.454722  4581 net.cpp:454] loss <- ip2
I0109 02:36:16.454740  4581 net.cpp:454] loss <- label
I0109 02:36:16.454761  4581 net.cpp:411] loss -> loss
I0109 02:36:16.454792  4581 layer_factory.hpp:77] Creating layer loss
…
I0109 02:36:16.455598  4581 solver.cpp:181] Creating test net (#0) specified by net file: indus_train_test.prototxt
I0109 02:36:16.455644  4581 net.cpp:322] The NetState phase (1) differed from the phase (0) specified by a rule in layer indus
I0109 02:36:16.455762  4581 net.cpp:49] Initializing net from parameters:
name: "indus"
state {
  phase: TEST
}
layer {
  name: "indus"
  type: "ImageData"
  top: "data"
  top: "label"
  include {
    phase: TEST
  }
  transform_param {
    scale: 0.00390625
    crop_size: 32
  }
  image_data_param {
    source: "Test.txt"
    batch_size: 52
    is_color: false
  }
}
layer {
  name: "conv1"
  type: "Convolution"
  bottom: "data"
  top: "conv1"
  param {
    lr_mult: 1
  }
  param {
    lr_mult: 2
  }
  convolution_param {
    num_output: 20
    kernel_size: 5
    stride: 1
    weight_filler {
      type: "xavier"
    }
    bias_filler {
      type: "constant"
    }
  }
}
layer {
  name: "conv2"
  type: "Convolution"
  bottom: "conv1"
  top: "conv2"
  param {
    lr_mult: 1
  }
  param {
    lr_mult: 2
  }
  convolution_param {
    num_output: 50
    kernel_size: 5
    stride: 1
    weight_filler {
      type: "xavier"
    }
    bias_filler {
      type: "constant"
    }
  }
}
layer {
  name: "dropout"
  type: "Dropout"
  bottom: "conv2"
  top: "dropout"
}
layer {
  name: "ip1"
  type: "InnerProduct"
  bottom: "dropout"
  top: "ip1"
  param {
    lr_mult: 1
  }
  param {
    lr_mult: 2
  }
  inner_product_param {
    num_output: 500
    weight_filler {
      type: "xavier"
    }
    bias_filler {
      type: "constant"
    }
  }
}
layer {
  name: "relu1"
  type: "ReLU"
  bottom: "ip1"
  top: "ip1"
}
layer {
  name: "ip2"
  type: "InnerProduct"
  bottom: "ip1"
  top: "ip2"
  param {
    lr_mult: 1
  }
  param {
    lr_mult: 2
  }
  inner_product_param {
    num_output: 2
    weight_filler {
      type: "xavier"
    }
    bias_filler {
      type: "constant"
    }
  }
}
layer {
  name: "accuracy"
  type: "Accuracy"
  bottom: "ip2"
  bottom: "label"
  top: "accuracy"
  include {
    phase: TEST
  }
}
layer {
  name: "loss"
  type: "SoftmaxWithLoss"
  bottom: "ip2"
  bottom: "label"
  top: "loss"
}
I0109 02:36:16.456496  4581 layer_factory.hpp:77] Creating layer indus
I0109 02:36:16.456526  4581 net.cpp:106] Creating Layer indus
I0109 02:36:16.456545  4581 net.cpp:411] indus -> data
I0109 02:36:16.456568  4581 net.cpp:411] indus -> label
I0109 02:36:16.456590  4581 image_data_layer.cpp:38] Opening file Test.txt
I0109 02:36:16.456673  4581 image_data_layer.cpp:53] A total of 104 images.
I0109 02:36:16.456959  4581 image_data_layer.cpp:80] output data size: 52,1,32,32
I0109 02:36:16.458145  4581 net.cpp:150] Setting up indus
I0109 02:36:16.458174  4581 net.cpp:157] Top shape: 52 1 32 32 (53248)
I0109 02:36:16.458194  4581 net.cpp:157] Top shape: 52 (52)
I0109 02:36:16.458209  4581 net.cpp:165] Memory required for data: 213200
I0109 02:36:16.458225  4581 layer_factory.hpp:77] Creating layer label_indus_1_split
I0109 02:36:16.458247  4581 net.cpp:106] Creating Layer label_indus_1_split
I0109 02:36:16.458264  4581 net.cpp:454] label_indus_1_split <- label
I0109 02:36:16.458282  4581 net.cpp:411] label_indus_1_split -> label_indus_1_split_0
I0109 02:36:16.458303  4581 net.cpp:411] label_indus_1_split -> label_indus_1_split_1
I0109 02:36:16.458365  4581 net.cpp:150] Setting up label_indus_1_split
I0109 02:36:16.458387  4581 net.cpp:157] Top shape: 52 (52)
I0109 02:36:16.458405  4581 net.cpp:157] Top shape: 52 (52)
I0109 02:36:16.458420  4581 net.cpp:165] Memory required for data: 213616
I0109 02:36:16.458434  4581 layer_factory.hpp:77] Creating layer conv1
I0109 02:36:16.458459  4581 net.cpp:106] Creating Layer conv1
I0109 02:36:16.458477  4581 net.cpp:454] conv1 <- data
I0109 02:36:16.458498  4581 net.cpp:411] conv1 -> conv1
I0109 02:36:16.458763  4581 net.cpp:150] Setting up conv1
I0109 02:36:16.458787  4581 net.cpp:157] Top shape: 52 20 28 28 (815360)
I0109 02:36:16.458803  4581 net.cpp:165] Memory required for data: 3475056
I0109 02:36:16.458827  4581 layer_factory.hpp:77] Creating layer conv2
I0109 02:36:16.458851  4581 net.cpp:106] Creating Layer conv2
I0109 02:36:16.458868  4581 net.cpp:454] conv2 <- conv1
I0109 02:36:16.458889  4581 net.cpp:411] conv2 -> conv2
I0109 02:36:16.459383  4581 net.cpp:150] Setting up conv2
I0109 02:36:16.459408  4581 net.cpp:157] Top shape: 52 50 24 24 (1497600)
I0109 02:36:16.459441  4581 net.cpp:165] Memory required for data: 9465456
I0109 02:36:16.459465  4581 layer_factory.hpp:77] Creating layer dropout
I0109 02:36:16.459491  4581 net.cpp:106] Creating Layer dropout
I0109 02:36:16.459507  4581 net.cpp:454] dropout <- conv2
I0109 02:36:16.459525  4581 net.cpp:411] dropout -> dropout
I0109 02:36:16.459583  4581 net.cpp:150] Setting up dropout
I0109 02:36:16.459604  4581 net.cpp:157] Top shape: 52 50 24 24 (1497600)
I0109 02:36:16.459619  4581 net.cpp:165] Memory required for data: 15455856
I0109 02:36:16.459635  4581 layer_factory.hpp:77] Creating layer ip1
I0109 02:36:16.459656  4581 net.cpp:106] Creating Layer ip1
I0109 02:36:16.459674  4581 net.cpp:454] ip1 <- dropout
I0109 02:36:16.459692  4581 net.cpp:411] ip1 -> ip1
I0109 02:36:16.610445  4581 net.cpp:150] Setting up ip1
I0109 02:36:16.610503  4581 net.cpp:157] Top shape: 52 500 (26000)
I0109 02:36:16.610520  4581 net.cpp:165] Memory required for data: 15559856
I0109 02:36:16.610549  4581 layer_factory.hpp:77] Creating layer relu1
I0109 02:36:16.610572  4581 net.cpp:106] Creating Layer relu1
I0109 02:36:16.610589  4581 net.cpp:454] relu1 <- ip1
I0109 02:36:16.610612  4581 net.cpp:397] relu1 -> ip1 (in-place)
I0109 02:36:16.610637  4581 net.cpp:150] Setting up relu1
I0109 02:36:16.610656  4581 net.cpp:157] Top shape: 52 500 (26000)
I0109 02:36:16.610669  4581 net.cpp:165] Memory required for data: 15663856
I0109 02:36:16.610684  4581 layer_factory.hpp:77] Creating layer ip2
I0109 02:36:16.610705  4581 net.cpp:106] Creating Layer ip2
I0109 02:36:16.610731  4581 net.cpp:454] ip2 <- ip1
I0109 02:36:16.610752  4581 net.cpp:411] ip2 -> ip2
I0109 02:36:16.610885  4581 net.cpp:150] Setting up ip2
I0109 02:36:16.610910  4581 net.cpp:157] Top shape: 52 2 (104)
I0109 02:36:16.610926  4581 net.cpp:165] Memory required for data: 15664272
I0109 02:36:16.610945  4581 layer_factory.hpp:77] Creating layer ip2_ip2_0_split
I0109 02:36:16.610966  4581 net.cpp:106] Creating Layer ip2_ip2_0_split
I0109 02:36:16.610981  4581 net.cpp:454] ip2_ip2_0_split <- ip2
I0109 02:36:16.611004  4581 net.cpp:411] ip2_ip2_0_split -> ip2_ip2_0_split_0
I0109 02:36:16.611024  4581 net.cpp:411] ip2_ip2_0_split -> ip2_ip2_0_split_1
I0109 02:36:16.611076  4581 net.cpp:150] Setting up ip2_ip2_0_split
I0109 02:36:16.611099  4581 net.cpp:157] Top shape: 52 2 (104)
I0109 02:36:16.611116  4581 net.cpp:157] Top shape: 52 2 (104)
I0109 02:36:16.611131  4581 net.cpp:165] Memory required for data: 15665104
I0109 02:36:16.611146  4581 layer_factory.hpp:77] Creating layer accuracy
I0109 02:36:16.611173  4581 net.cpp:106] Creating Layer accuracy
I0109 02:36:16.611196  4581 net.cpp:454] accuracy <- ip2_ip2_0_split_0
I0109 02:36:16.611213  4581 net.cpp:454] accuracy <- label_indus_1_split_0
I0109 02:36:16.611233  4581 net.cpp:411] accuracy -> accuracy
…
